…
n  epochs = 200,\n  verbose = TRUE, \n  validation_data = list(x = x[-indices_entrena,,,], \n                         y = y_imagenes[-c(indices_entrena)] / 10)\n)\nsave_model_hdf5(modelo_aguja, \"cache/modelo-aguja.h5\")\n\n\nmodelo &lt;- load_model_hdf5(\"cache/modelo-aguja.h5\")\nmodelo\n\nModel: \"sequential_2\"\n________________________________________________________________________________\n Layer (type)                       Output Shape                    Param #     \n================================================================================\n conv2d_8 (Conv2D)                  (None, 60, 60, 32)              2432        \n max_pooling2d_8 (MaxPooling2D)     (None, 30, 30, 32)              0           \n conv2d_7 (Conv2D)                  (None, 26, 26, 32)              25632       \n max_pooling2d_7 (MaxPooling2D)     (None, 13, 13, 32)              0           \n conv2d_6 (Conv2D)                  (None, 11, 11, 16)              4624        \n max_pooling2d_6 (MaxPooling2D)     (None, 5, 5, 16)                0           \n flatten_2 (Flatten)                (None, 400)                     0           \n dropout_8 (Dropout)                (None, 400)                     0           \n dense_8 (Dense)                    (None, 100)                     40100       \n dropout_7 (Dropout)                (None, 100)                     0           \n dense_7 (Dense)                    (None, 100)                     10100       \n dropout_6 (Dropout)                (None, 100)                     0           \n dense_6 (Dense)                    (None, 1)                       101         \n================================================================================\nTotal params: 82,989\nTrainable params: 82,989\nNon-trainable params: 0\n________________________________________________________________________________\n\n\nY observamos que obtenemos predicciones prometedoras:\n\npreds &lt;- predict(modelo, x[-indices_entrena,,,])\npreds_tbl &lt;- tibble(y = y_imagenes[
…
